parameters.npy (npy, 64192 bytes, 1 tensors)

array f8 [10, 784]
-0.23499090842756998 -0.1386766052830518 -0.4489145605445707 -0.1517431830791831 -0.3399225698182413 0.31638099561049504 -0.15942966332983155 -0.15060309817954776
-0.13861904761494115 0.23448505054120083 -0.368428477320495 0.021398705278497965 -0.24438694263020178 -0.4096158668817924 -0.41113023541614147 0.1412114984820444
0.08684716706765438 0.19876641804467987 -0.19580050692231699 -0.16931034489161245 -0.03422318304277472 -0.04930764739037963 -0.03645422971900525 0.49716191186040093
0.27521004343088606 0.16168189440291425 -0.035793610883207094 -0.2136313407112943 0.13565137998110666 0.36332975296443426 -0.41630712720432994 0.3708394384944894
0.46450949583219914 -0.006797370130110281 0.17250761000201154 -0.10331262984142431 -0.1543523098728551 -0.09083409836234313 -0.49676827952301755 -0.40402100099050897
0.32387725846594606 -0.4014881401182503 -0.33184876643639305 -0.3653679987745111 -0.4335488094408947 -0.2689390441234687 0.035278237188216655 0.34335625111955403
0.2264854366935053 0.38377575314346546 -0.3062575026651472 -0.39049302160693866 0.4110860005444875 0.021090104840205237 0.2756630726021908 -0.44361794934222465
-0.05423755604482672 -0.3284242416083296 0.4097775001179754 0.11654309813035524 0.3585194803355272 0.14341306233658832 -0.2584836955241233 0.02807553242941555
0.07025177344449857 -0.08824071378325948 -0.3168303688933092 -0.20427904481691006 -0.3329180859662735 -0.2796786647364936 0.21468725755716236 0.18823741309817127
0.24415960213635107 0.049449822019051695 -0.10111622938160666 -0.41762281899757314 0.46041702375737137 0.2713935565014188 0.45944328860045447 -0.07489091856561486
-0.3739336674108872 -0.31820120244463546 0.437888067726829 0.1092390794348631 -0.45432029076055025 -0.30453555777827046 0.3763791941914316 -0.06928548807391821
-0.3389593913168427 -0.4729392099430232 0.2337195770372907 -0.20254792590383708 -0.49759312884270224 -0.4288785289218231 -0.4231436070824163 -0.02369263324376205
-0.06636161901227478 0.048057306486796805 0.25766824382387765 0.1530687440492734 -0.4195653204022114 0.31169983413259583 0.12281287763242708 0.37289085297765956
0.1871123218353914 0.3326232071537432 -0.003831346906390113 0.4986832610761247 0.44436631431645535 -0.44712202436613846 0.05704503095995894 -0.27819176783477073
0.09571958920077273 0.14528296204808333 0.4561119232967009 0.009032042218562202 0.16953628699452855 -0.46995355608529565 -0.06295295906638197 0.4426131245134887
0.45761410002290026 0.24630145570810044 0.4030448602210569 0.10679967349291856 -0.10416832507993572 0.33625167322568095 -0.0031945429157436357 -0.06035827195743145
-0.2775849738897655 0.5008360832509144 -0.01775729548157552 -0.20461563470128383 0.15684902636276526 -0.07891240756689546 -0.11794017298657179 0.00879831473407893
0.320323652547014 0.21626954767786435 0.3474701212821102 -0.13712809630545286 -0.06250896014797691 0.4945451409595423 -0.272006228770239 -0.4958119393133439
0.4106960206306675 0.3138192113968707 -0.03590673765457795 -0.08812691945077983 0.11626834494701632 0.33117022894008347 0.4386003672118259 -0.4052455721088383
-0.5226000127449064 0.11722973592354632 -0.10333651286908195 -0.3064406383760734 0.03741739111169462 -0.010684208780042536 -0.3793846352755368 0.20205784404909297
0.2570040571203487 0.3333839427819017 -0.11587793177950456 -0.1250393187340734 0.4921060522185095 0.0689622926214521 -0.24353906965945007 0.07111815474974637
0.23504726856897318 -0.012229176479367387 0.11738683843267991 0.44527665686776774 0.026112212724389506 0.4479961962048062 0.3848971464580048 0.12463973779279541
-0.4354181159990875 0.08277445868779662 0.4097142580667138 -0.3503000777256701 -0.2795822085736509 -0.1764538290601493 0.42325608394900416 -0.30469127576546823
0.19748419822806135 0.10140192713855649 0.43278502159816573 0.07433500746462884 0.44450866821192087 -0.23322862073894185 -0.3583547868513495 0.04767597924914279
-0.32364013045773377 0.47165979309707184 0.4167215337544714 0.4155893980856499 -0.3903644562103432 0.16692299849954736 -0.15868819014383273 -0.3680600151256452
-0.06685234714241416 -0.08366807318718883 -0.44278289415994865 0.3419561641734585 -0.08606380899873498 0.2620523297707276 0.45062560780830124 0.5267988297247294
-0.1100782340352745 -0.3397358428651562 -0.41148006861191133 0.5506894152458595 -0.33714625788606084 0.07632405833804107 0.13600256304334757 0.3649989605069378
-0.3185559280536876 0.32744487897170305 0.03764505847980606 -0.16909513820028305 0.3760407600507944 -0.1282366600476833 -0.39823515805698523 0.3387947625332332
-0.4141265331654207 0.12827399959584862 -0.44042706613001825 -0.327549791811374 0.2950856158003242 0.3247383756597419 -0.24567978880890198 0.1518526527210451
-0.05659196553842507 -0.30064767312997176 0.360963655762475 -0.12271957051985624 -0.35065895528440616 -0.1643340520545999 -0.23554291715405062 -0.1903222395615094
0.2505564603035758 0.19779913962239395 -0.1921426625696665 0.19373748449120423 -0.10314077372111731 0.46761163902380926 0.00029214240240900527 -0.28144124974031803
0.2326532780709212 -0.4307638544093824 0.39345310186085325 0.2458397884814617 -0.0070060618144878895 -0.09667674986670799 -0.273080726818891 0.41747364757039446
00000000: 14e1 469d 2e14 cebf ec9b 34ae 27c0 c1bf
00000010: 5a2d 0f23 04bb dcbf f0a6 5b14 526c c3bf
00000020: f4a9 2298 4ac1 d5bf 9045 4e13 963f d43f
00000030: 08c8 01f3 3068 c4bf 6cc0 ad5a f646 c3bf
00000040: 70ee 0dda 44be c1bf c0d8 bc2b 9b03 ce3f
00000050: 326c 4009 5594 d7bf a03d 64cd 8ae9 953f
00000060: 3c44 1543 1248 cfbf ec84 0b78 2537 dabf
00000070: 3c95 e030 f54f dabf 2457 e6e7 3713 c23f
00000080: 784a 4eae 9d3b b63f 64c1 8590 2d71 c93f
00000090: e8c2 e2b2 fd0f c9bf e08b 171d f6ab c5bf
000000a0: 1013 de77 b385 a1bf b000 f819 da3e a9bf
000000b0: d053 e3f8 20aa a2bf e476 1032 80d1 df3f
000000c0: d23f 0496 0a9d d13f 846d 6808 feb1 c43f
000000d0: 005a 4c48 8a53 a2bf e4b8 e092 4558 cbbf
000000e0: 2c8b 5640 065d c13f 2258 a96f cb40 d73f
000000f0: b8cb 1ba6 c6a4 dabf 4aa7 1957 d5bb d73f
00000100: b4f7 5109 86ba dd3f 00a8 8526 8fd7 7bbf
00000110: 9087 a2b7 ba14 c63f 88c3 6e4e b272 babf
00000120: eca4 7b05 d1c1 c3bf f8f1 d349 e740 b7bf
00000130: 8175 8f2e 0dcb dfbf dcb0 89e6 7adb d9bf
00000140: 52e1 41ae 67ba d43f 468b e24f fbb1 d9bf
00000150: eafb c39b 023d d5bf a074 6f75 3062 d7bf
00000160: 1e2d 7181 43bf dbbf dc2d c81b 4c36 d1bf
00000170: 90c4 f735 fd0f a23f a8e1 5b7f 8cf9 d53f
00000180: 9437 cf8b 79fd cc3f daee 2f2d c88f d83f
00000190: fe7d 8611 b999 d3bf b08d 4771 d6fd d8bf
000001a0: 16a6 0ba8 3b4f da3f 4048 3bfa a498 953f
000001b0: 62a4 62ba 76a4 d13f eafa 158a 3c64 dcbf
000001c0: 00e1 da62 06c5 abbf dcf7 3a1c e704 d5bf
000001d0: 7e2c 6968 cb39 da3f 705d 0bbb c4d5 bd3f
000001e0: c147 c1b0 fbf1 d63f 8705 47f6 5b5b c23f
000001f0: 3ad2 b432 ff8a d0bf 0994 6816 d5bf 9c3f
00000200: 841c 6e2d 05fc b13f a0f2 df83 f196 b6bf
00000210: 30b0 31e2 f246 d4bf 6895 5fd4 d025 cabf
00000220: 4036 dea8 874e d5bf faa8 9b57 41e6 d1bf
00000230: 71b8 093f df7a cb3f f2f4 91de 2918 c83f
00000240: 3a0a 1731 9f40 cf3f 52cd bab0 7c51 a93f
00000250: 16f1 49d2 c0e2 b9bf 1a1b 6a0f 55ba dabf
00000260: eacf e3f6 7877 dd3f bd32 6114 835e d13f
00000270: 08f6 b9d2 8467 dd3f 14b8 011e 0d2c b3bf
00000280: 6acc 197a 87ee d7bf a00b 8393 685d d4bf
00000290: d680 8cac 5b06 dc3f 982d 9ea1 17f7 bb3f
000002a0: 1673 ae69 9513 ddbf 541d 48b5 827d d3bf
000002b0: 2c9c 7cc2 9816 d83f 9068 5d99 b1bc b1bf
000002c0: 9c2f 18bb 82b1 d5bf 20e3 ecd1 a244 debf
000002d0: e3b1 e7e9 85ea cd3f 1c97 d026 17ed c9bf
000002e0: 84ff c5d9 90d8 dfbf a440 ebed be72 dbbf
000002f0: 868c 7bec c814 dbbf 2698 c0b3 e142 98bf
00000300: 7809 5e37 13fd b0bf faa7 639f f79a a83f
00000310: 663e 1cf2 a27d d03f 4c9f ddb0 c197 c33f
00000320: d872 6a80 28da dabf f028 71dc e3f2 d33f
00000330: 0f7c f52c aa70 bf3f d80f a198 71dd d73f
00000340: c816 7beb 4bf3 c73f e56b 27d9 b249 d53f
00000350: 3bd3 33b5 ea62 6fbf 0c9d 5832 6dea df3f
00000360: 14ba db68 7f70 dc3f 0c54 feb1 a59d dcbf
00000370: 30a2 be9c 0135 ad3f 1479 37d8 e4cd d1bf
00000380: 1031 3439 1481 b83f b0cd 54d1 a198 c23f
00000390: daff 7710 f030 dd3f a9fb 8e2f 647f 823f
000003a0: 023a 1074 5db3 c53f a49d 8114 b813 debf
000003b0: bf64 6064 af1d b0bf 3b36 a4ff c553 dc3f
000003c0: 6a5b 72a6 8c49 dd3f 1f9b 9c5c ce86 cf3f
000003d0: e619 5eab 7ccb d93f eb24 e030 3957 bb3f
000003e0: f356 7f7d c6aa babf 6ab1 eebc 2585 d53f
000003f0: 3144 292b 712b 6abf eb52 3388 47e7 aebf
00000400: 73ec 2dc4 f3c3 d1bf 6a05 c764 d906 e03f
00000410: d362 6fed f72e 92bf fb69 a559 d830 cabf
00000420: 369a 51ff a013 c43f b299 bf81 9a33 b4bf
00000430: 09a6 dcc1 5331 bebf 1b9f 57d0 d904 823f
00000440: c2c7 f4c6 2e80 d43f 7dd5 3275 b8ae cb3f
00000450: b29a cf51 f33c d63f f850 7fd8 698d c1bf
00000460: 20e3 8a53 9600 b0bf d048 b4a9 a0a6 df3f
00000470: 1918 38d0 8c68 d1bf 2a4c 1400 62bb dfbf
00000480: 0f30 4df6 d748 da3f a796 732c 9d15 d43f
00000490: ed6b dd2f 5e62 a2bf 1c36 f05c 7c8f b6bf
000004a0: f083 1b23 c3c3 bd3f 2737 ad9d e431 d53f
000004b0: 770e 4c46 0712 dc3f ef99 c31f 8bef d9bf
000004c0: 221d 74a9 23b9 e0bf 8e0c e999 c402 be3f
000004d0: 3f61 41ff 4274 babf f465 ff31 b99c d3bf
000004e0: 80b3 404e 5f28 a33f 13f2 593a 9ae1 85bf
000004f0: 9c40 477e d647 d8bf e7a9 0b0c 08dd c93f
00000500: 905b 1125 c172 d03f 9da0 d09a 2956 d53f
00000510: 0833 5217 2daa bdbf cda6 56d4 4901 c0bf
00000520: 754c 1c62 aa7e df3f ad60 7747 83a7 b13f
00000530: 4528 bec9 492c cfbf b051 cda4 cc34 b23f
00000540: 8449 c265 0716 ce3f 8083 4948 9c0b 89bf
00000550: 1e98 0c58 100d be3f 6cd5 baa9 697f dc3f
00000560: edb4 b5ee 28bd 9a3f 93a6 db3c f8ab dc3f
00000570: 3718 17a4 27a2 d83f 5c21 9acd 63e8 bf3f
00000580: 3754 13f2 e3dd dbbf b618 02f9 b430 b53f
00000590: fe7d c626 c238 da3f 7f8d 6704 516b d6bf
000005a0: 8a81 97c6 ace4 d1bf cd9d 8800 0a96 c6bf
000005b0: 5a37 99af a016 db3f 4f82 32d6 0f80 d3bf
000005c0: 12e3 6e86 2947 c93f d3bc cf08 7af5 b93f
000005d0: 1d9e 7df2 bfb2 db3f d82c 027a 9e07 b33f
000005e0: c98e 307c d472 dc3f 0a50 4879 6fda cdbf
000005f0: ed0f 79ea 48ef d6bf 5f14 5c67 fc68 a83f
00000600: 124e ff17 85b6 d4bf c829 8c8e ac2f de3f
00000610: 2cec c0cb 90ab da3f 76e6 5546 0499 da3f
00000620: 906e 3c33 bbfb d8bf 7bbe c099 bb5d c53f
00000630: bcef 7605 e54f c4bf ab83 fb97 4b8e d7bf
00000640: b733 a344 3c1d b1bf 70ed 0e56 456b b5bf
00000650: 1a4b 6910 8e56 dcbf 5f99 721b 9ce2 d53f
00000660: 46cd 041d 4708 b6bf 2d2d 8d22 77c5 d03f
00000670: b3b6 11ca 0cd7 dc3f 21a4 2738 89db e03f
00000680: 08d5 2e4f 162e bcbf 3ba1 9867 3bbe d5bf
00000690: 3837 697f b055 dabf a27f 9768 3f9f e13f
000006a0: f3b8 e5e5 cd93 d5bf dcba 7536 f989 b33f
000006b0: e4bf 3830 8868 c13f fee1 9c99 245c d73f
000006c0: 4800 3c67 3863 d4bf ec45 9b5d dbf4 d43f
000006d0: 63b5 0d8e 3646 a33f eacc 3dd4 e8a4 c5bf
000006e0: af64 9843 0d11 d83f fcca 8612 0f6a c0bf
000006f0: 9537 fe50 af7c d9bf 83b9 483a d0ae d53f
00000700: 607c 1693 0c81 dabf 187c 984c 486b c03f
00000710: 5c4e 5301 f52f dcbf ae0d e966 93f6 d4bf
00000720: 7679 58c7 aee2 d23f 87be cd77 83c8 d43f
00000730: 4978 1c71 6f72 cfbf c0b5 9f60 e86f c33f
00000740: e364 6842 9ff9 acbf ee8c edbc cf3d d3bf
00000750: fad7 224e 071a d73f 3e42 f6bd 8c6a bfbf
00000760: 4cbf 3f42 3271 d6bf 1eca 98f1 e508 c5bf
00000770: 3094 fd32 4526 cebf e01f 4fa9 7a5c c8bf
00000780: 5a8b b3f6 1d09 d03f 9174 ed71 7b51 c93f
00000790: 2898 f379 2198 c8bf 6513 f3cf 63cc c83f
000007a0: 892e 040a 6f67 babf 9984 355e 59ed dd3f
000007b0: 1545 6a10 5625 333f 7c52 d828 2203 d2bf
000007c0: 2997 4f26 95c7 cd3f 552e bf8e a291 dbbf
000007d0: c222 40eb 552e d93f 04ae ca9d ad77 cf3f
000007e0: 5226 df65 63b2 7cbf 8c09 f6b6 cebf b8bf
000007f0: 17b9 b695 277a d1bf 596d d063 e3b7 da3f
